_________________________________________________________________
Layer (type)                 Output Shape              Param #   
=================================================================
dense_1 (Dense)              (None, 200)               3600      
_________________________________________________________________
dropout_1 (Dropout)          (None, 200)               0         
_________________________________________________________________
activation_1 (Activation)    (None, 200)               0         
_________________________________________________________________
dense_2 (Dense)              (None, 3)                 603       
_________________________________________________________________
activation_2 (Activation)    (None, 3)                 0         
=================================================================
Total params: 4,203
Trainable params: 4,203
Non-trainable params: 0
_________________________________________________________________
Train on 2664 samples, validate on 666 samples
Epoch 1/10
 - 5s - loss: 0.7207 - acc: 0.7613 - val_loss: 0.6293 - val_acc: 0.8378
Epoch 2/10
 - 5s - loss: 0.7079 - acc: 0.7601 - val_loss: 0.6065 - val_acc: 0.8363
…
