_________________________________________________________________
Layer (type)                 Output Shape              Param #   
=================================================================
dense_1 (Dense)              (None, 1000)              18000     
_________________________________________________________________
dropout_1 (Dropout)          (None, 1000)              0         
_________________________________________________________________
activation_1 (Activation)    (None, 1000)              0         
_________________________________________________________________
dense_2 (Dense)              (None, 1000)              1001000   
_________________________________________________________________
dropout_2 (Dropout)          (None, 1000)              0         
_________________________________________________________________
activation_2 (Activation)    (None, 1000)              0         
_________________________________________________________________
dense_3 (Dense)              (None, 3)                 3003      
_________________________________________________________________
activation_3 (Activation)    (None, 3)                 0         
=================================================================
Total params: 1,022,003
Trainable params: 1,022,003
Non-trainable params: 0
_________________________________________________________________
Train on 2664 samples, validate on 666 samples
Epoch 1/10
 - 8s - loss: 0.8596 - acc: 0.7095 - val_loss: 0.8797 - val_acc: 0.8198
Epoch 2/10
 - 7s - loss: 0.7360 - acc: 0.7530 - val_loss: 0.8563 - val_acc: 0.8198
…
