_________________________________________________________________
Layer (type)                 Output Shape              Param #   
=================================================================
dense_1 (Dense)              (None, 200)               3600      
_________________________________________________________________
dropout_1 (Dropout)          (None, 200)               0         
_________________________________________________________________
activation_1 (Activation)    (None, 200)               0         
_________________________________________________________________
dense_2 (Dense)              (None, 3)                 603       
_________________________________________________________________
activation_2 (Activation)    (None, 3)                 0         
=================================================================
Total params: 4,203
Trainable params: 4,203
Non-trainable params: 0
_________________________________________________________________
Train on 2664 samples, validate on 666 samples
Epoch 1/10
 - 5s - loss: 0.7196 - acc: 0.7620 - val_loss: 0.8611 - val_acc: 0.8018
Epoch 2/10
 - 5s - loss: 0.7166 - acc: 0.7646 - val_loss: 0.7479 - val_acc: 0.8018
…
