_________________________________________________________________
Layer (type)                 Output Shape              Param #   
=================================================================
dense_1 (Dense)              (None, 200)               3600      
_________________________________________________________________
dropout_1 (Dropout)          (None, 200)               0         
_________________________________________________________________
activation_1 (Activation)    (None, 200)               0         
_________________________________________________________________
dense_2 (Dense)              (None, 200)               40200     
_________________________________________________________________
dropout_2 (Dropout)          (None, 200)               0         
_________________________________________________________________
activation_2 (Activation)    (None, 200)               0         
_________________________________________________________________
dense_3 (Dense)              (None, 200)               40200     
_________________________________________________________________
dropout_3 (Dropout)          (None, 200)               0         
_________________________________________________________________
activation_3 (Activation)    (None, 200)               0         
_________________________________________________________________
dense_4 (Dense)              (None, 3)                 603       
_________________________________________________________________
activation_4 (Activation)    (None, 3)                 0         
=================================================================
Total params: 84,603
Trainable params: 84,603
Non-trainable params: 0
_________________________________________________________________
Train on 2664 samples, validate on 666 samples
Epoch 1/10
 - 7s - loss: 0.7243 - acc: 0.7331 - val_loss: 1.0756 - val_acc: 0.7883
Epoch 2/10
 - 6s - loss: 0.6431 - acc: 0.7973 - val_loss: 0.9699 - val_acc: 0.7883
…
