_________________________________________________________________
Layer (type)                 Output Shape              Param #   
=================================================================
dense_1 (Dense)              (None, 200)               3600      
_________________________________________________________________
dropout_1 (Dropout)          (None, 200)               0         
_________________________________________________________________
activation_1 (Activation)    (None, 200)               0         
_________________________________________________________________
dense_2 (Dense)              (None, 200)               40200     
_________________________________________________________________
dropout_2 (Dropout)          (None, 200)               0         
_________________________________________________________________
activation_2 (Activation)    (None, 200)               0         
_________________________________________________________________
dense_3 (Dense)              (None, 200)               40200     
_________________________________________________________________
dropout_3 (Dropout)          (None, 200)               0         
_________________________________________________________________
activation_3 (Activation)    (None, 200)               0         
_________________________________________________________________
dense_4 (Dense)              (None, 200)               40200     
_________________________________________________________________
dropout_4 (Dropout)          (None, 200)               0         
_________________________________________________________________
activation_4 (Activation)    (None, 200)               0         
_________________________________________________________________
dense_5 (Dense)              (None, 3)                 603       
_________________________________________________________________
activation_5 (Activation)    (None, 3)                 0         
=================================================================
Total params: 124,803
Trainable params: 124,803
Non-trainable params: 0
_________________________________________________________________
Train on 2664 samples, validate on 666 samples
Epoch 1/10
 - 8s - loss: 0.8515 - acc: 0.6239 - val_loss: 0.8213 - val_acc: 0.7973
Epoch 2/10
 - 7s - loss: 0.6809 - acc: 0.7763 - val_loss: 0.7625 - val_acc: 0.7988
…
