_________________________________________________________________
Layer (type)                 Output Shape              Param #   
=================================================================
dense_1 (Dense)              (None, 200)               3600      
_________________________________________________________________
dropout_1 (Dropout)          (None, 200)               0         
_________________________________________________________________
activation_1 (Activation)    (None, 200)               0         
_________________________________________________________________
dense_2 (Dense)              (None, 200)               40200     
_________________________________________________________________
dropout_2 (Dropout)          (None, 200)               0         
_________________________________________________________________
activation_2 (Activation)    (None, 200)               0         
_________________________________________________________________
dense_3 (Dense)              (None, 3)                 603       
_________________________________________________________________
activation_3 (Activation)    (None, 3)                 0         
=================================================================
Total params: 44,403
Trainable params: 44,403
Non-trainable params: 0
_________________________________________________________________
Train on 2664 samples, validate on 666 samples
Epoch 1/20
 - 6s - loss: 0.6813 - acc: 0.7812 - val_loss: 0.8709 - val_acc: 0.8153
Epoch 2/20
 - 5s - loss: 0.6706 - acc: 0.7853 - val_loss: 0.6310 - val_acc: 0.8153
…
