_________________________________________________________________
Layer (type)                 Output Shape              Param #   
=================================================================
dense_1 (Dense)              (None, 50)                900       
_________________________________________________________________
dropout_1 (Dropout)          (None, 50)                0         
_________________________________________________________________
activation_1 (Activation)    (None, 50)                0         
_________________________________________________________________
dense_2 (Dense)              (None, 50)                2550      
_________________________________________________________________
dropout_2 (Dropout)          (None, 50)                0         
_________________________________________________________________
activation_2 (Activation)    (None, 50)                0         
_________________________________________________________________
dense_3 (Dense)              (None, 3)                 153       
_________________________________________________________________
activation_3 (Activation)    (None, 3)                 0         
=================================================================
Total params: 3,603
Trainable params: 3,603
Non-trainable params: 0
_________________________________________________________________
Train on 2664 samples, validate on 666 samples
Epoch 1/10
 - 6s - loss: 0.6485 - acc: 0.7973 - val_loss: 0.7431 - val_acc: 0.7838
Epoch 2/10
 - 5s - loss: 0.6230 - acc: 0.8056 - val_loss: 0.8624 - val_acc: 0.7838
…
