_________________________________________________________________
Layer (type)                 Output Shape              Param #   
=================================================================
dense_1 (Dense)              (None, 10)                180       
_________________________________________________________________
dropout_1 (Dropout)          (None, 10)                0         
_________________________________________________________________
activation_1 (Activation)    (None, 10)                0         
_________________________________________________________________
dense_2 (Dense)              (None, 10)                110       
_________________________________________________________________
dropout_2 (Dropout)          (None, 10)                0         
_________________________________________________________________
activation_2 (Activation)    (None, 10)                0         
_________________________________________________________________
dense_3 (Dense)              (None, 3)                 33        
_________________________________________________________________
activation_3 (Activation)    (None, 3)                 0         
=================================================================
Total params: 323
Trainable params: 323
Non-trainable params: 0
_________________________________________________________________
Train on 2664 samples, validate on 666 samples
Epoch 1/10
 - 6s - loss: 0.8006 - acc: 0.6614 - val_loss: 0.6321 - val_acc: 0.7988
Epoch 2/10
 - 5s - loss: 0.7448 - acc: 0.6952 - val_loss: 0.6422 - val_acc: 0.7988
…
