_________________________________________________________________
Layer (type)                 Output Shape              Param #   
=================================================================
dense_1 (Dense)              (None, 500)               9000      
_________________________________________________________________
dropout_1 (Dropout)          (None, 500)               0         
_________________________________________________________________
activation_1 (Activation)    (None, 500)               0         
_________________________________________________________________
dense_2 (Dense)              (None, 500)               250500    
_________________________________________________________________
dropout_2 (Dropout)          (None, 500)               0         
_________________________________________________________________
activation_2 (Activation)    (None, 500)               0         
_________________________________________________________________
dense_3 (Dense)              (None, 3)                 1503      
_________________________________________________________________
activation_3 (Activation)    (None, 3)                 0         
=================================================================
Total params: 261,003
Trainable params: 261,003
Non-trainable params: 0
_________________________________________________________________
Train on 2664 samples, validate on 666 samples
Epoch 1/10
 - 7s - loss: 0.8029 - acc: 0.7395 - val_loss: 1.1675 - val_acc: 0.8078
Epoch 2/10
 - 6s - loss: 0.8276 - acc: 0.7339 - val_loss: 1.1655 - val_acc: 0.8078
…
