_________________________________________________________________
Layer (type)                 Output Shape              Param #   
=================================================================
dense_1 (Dense)              (None, 200)               3600      
_________________________________________________________________
dropout_1 (Dropout)          (None, 200)               0         
_________________________________________________________________
activation_1 (Activation)    (None, 200)               0         
_________________________________________________________________
dense_2 (Dense)              (None, 200)               40200     
_________________________________________________________________
dropout_2 (Dropout)          (None, 200)               0         
_________________________________________________________________
activation_2 (Activation)    (None, 200)               0         
_________________________________________________________________
dense_3 (Dense)              (None, 200)               40200     
_________________________________________________________________
dropout_3 (Dropout)          (None, 200)               0         
_________________________________________________________________
activation_3 (Activation)    (None, 200)               0         
_________________________________________________________________
dense_4 (Dense)              (None, 200)               40200     
_________________________________________________________________
dropout_4 (Dropout)          (None, 200)               0         
_________________________________________________________________
activation_4 (Activation)    (None, 200)               0         
_________________________________________________________________
dense_5 (Dense)              (None, 200)               40200     
_________________________________________________________________
dropout_5 (Dropout)          (None, 200)               0         
_________________________________________________________________
activation_5 (Activation)    (None, 200)               0         
_________________________________________________________________
dense_6 (Dense)              (None, 3)                 603       
_________________________________________________________________
activation_6 (Activation)    (None, 3)                 0         
=================================================================
Total params: 165,003
Trainable params: 165,003
Non-trainable params: 0
_________________________________________________________________
Train on 2664 samples, validate on 666 samples
Epoch 1/10
 - 8s - loss: 0.9238 - acc: 0.5571 - val_loss: 0.7036 - val_acc: 0.7988
Epoch 2/10
 - 7s - loss: 0.6698 - acc: 0.7879 - val_loss: 0.8788 - val_acc: 0.7988
…
